…
nctions, codes.find_filter_class, codes.train_counterfactual_net, codes.filter_visualization_top_k, codes.filter_visualization_same_image, codes.model_accuracy_with_disabled_filters[0m
TF version:  2.4.0
...GPU set_memory_growth successfully set...
"base_model"
__________________________________________________________________________________________________
Layer (type)                    Output Shape         Param #     Connected to                     
==================================================================================================
input_3 (InputLayer)            [(None, 224, 224, 3) 0                                            
__________________________________________________________________________________________________
block1_conv1 (Conv2D)           (None, 224, 224, 64) 1792        input_3[0][0]                    
__________________________________________________________________________________________________
block1_conv2 (Conv2D)           (None, 224, 224, 64) 36928       block1_conv1[0][0]               
__________________________________________________________________________________________________
block1_pool (MaxPooling2D)      (None, 112, 112, 64) 0           block1_conv2[0][0]               
__________________________________________________________________________________________________
block2_conv1 (Conv2D)           (None, 112, 112, 128 73856       block1_pool[0][0]                
__________________________________________________________________________________________________
block2_conv2 (Conv2D)           (None, 112, 112, 128 147584      block2_conv1[0][0]               
__________________________________________________________________________________________________
block2_pool (MaxPooling2D)      (None, 56, 56, 128)  0           block2_conv2[0][0]               
__________________________________________________________________________________________________
block3_conv1 (Conv2D)           (None, 56, 56, 256)  295168      block2_pool[0][0]                
__________________________________________________________________________________________________
block3_conv2 (Conv2D)           (None, 56, 56, 256)  590080      block3_conv1[0][0]               
__________________________________________________________________________________________________
block3_conv3 (Conv2D)           (None, 56, 56, 256)  590080      block3_conv2[0][0]               
__________________________________________________________________________________________________
block3_pool (MaxPooling2D)      (None, 28, 28, 256)  0           block3_conv3[0][0]               
__________________________________________________________________________________________________
block4_conv1 (Conv2D)           (None, 28, 28, 512)  1180160     block3_pool[0][0]                
__________________________________________________________________________________________________
block4_conv2 (Conv2D)           (None, 28, 28, 512)  2359808     block4_conv1[0][0]               
__________________________________________________________________________________________________
block4_conv3 (Conv2D)           (None, 28, 28, 512)  2359808     block4_conv2[0][0]               
__________________________________________________________________________________________________
block4_pool (MaxPooling2D)      (None, 14, 14, 512)  0           block4_conv3[0][0]               
__________________________________________________________________________________________________
block5_conv1 (Conv2D)           (None, 14, 14, 512)  2359808     block4_pool[0][0]                
__________________________________________________________________________________________________
block5_conv2 (Conv2D)           (None, 14, 14, 512)  2359808     block5_conv1[0][0]               
__________________________________________________________________________________________________
block5_conv3 (Conv2D)           (None, 14, 14, 512)  2359808     block5_conv2[0][0]               
__________________________________________________________________________________________________
max_pooling2d_2 (MaxPooling2D)  (None, 7, 7, 512)    0           block5_conv3[0][0]               
__________________________________________________________________________________________________
global_average_pooling2d_2 (Glo (None, 512)          0           max_pooling2d_2[0][0]            
__________________________________________________________________________________________________
input_4 (InputLayer)            [(None, 512)]        0                                            
__________________________________________________________________________________________________
tf.__operators__.add_1 (TFOpLam (None, 512)          0           global_average_pooling2d_2[0][0] 
                                                                 input_4[0][0]                    
__________________________________________________________________________________________________
dense_2 (Dense)                 (None, 200)          102600      tf.__operators__.add_1[0][0]     
__________________________________________________________________________________________________
activation_1 (Activation)       (None, 200)          0           dense_2[0][0]                    
==================================================================================================
Total params: 14,817,288
Trainable params: 102,600
Non-trainable params: 14,714,688
__________________________________________________________________________________________________
weights loaded
Model: "counterfactual_model"
_________________________________________________________________
Layer (type)                 Output Shape              Param #   
=================================================================
input_3 (InputLayer)         [(None, 224, 224, 3)]     0         
_________________________________________________________________
block1_conv1 (Conv2D)        (None, 224, 224, 64)      1792      
_________________________________________________________________
block1_conv2 (Conv2D)        (None, 224, 224, 64)      36928     
_________________________________________________________________
block1_pool (MaxPooling2D)   (None, 112, 112, 64)      0         
_________________________________________________________________
block2_conv1 (Conv2D)        (None, 112, 112, 128)     73856     
_________________________________________________________________
block2_conv2 (Conv2D)        (None, 112, 112, 128)     147584    
_________________________________________________________________
block2_pool (MaxPooling2D)   (None, 56, 56, 128)       0         
_________________________________________________________________
block3_conv1 (Conv2D)        (None, 56, 56, 256)       295168    
_________________________________________________________________
block3_conv2 (Conv2D)        (None, 56, 56, 256)       590080    
_________________________________________________________________
block3_conv3 (Conv2D)        (None, 56, 56, 256)       590080    
_________________________________________________________________
block3_pool (MaxPooling2D)   (None, 28, 28, 256)       0         
_________________________________________________________________
block4_conv1 (Conv2D)        (None, 28, 28, 512)       1180160   
_________________________________________________________________
block4_conv2 (Conv2D)        (None, 28, 28, 512)       2359808   
_________________________________________________________________
block4_conv3 (Conv2D)        (None, 28, 28, 512)       2359808   
_________________________________________________________________
block4_pool (MaxPooling2D)   (None, 14, 14, 512)       0         
_________________________________________________________________
block5_conv1 (Conv2D)        (None, 14, 14, 512)       2359808   
_________________________________________________________________
block5_conv2 (Conv2D)        (None, 14, 14, 512)       2359808   
_________________________________________________________________
block5_conv3 (Conv2D)        (None, 14, 14, 512)       2359808   
_________________________________________________________________
max_pooling2d_3 (MaxPooling2 (None, 7, 7, 512)         0         
_________________________________________________________________
global_average_pooling2d_3 ( (None, 512)               0         
_________________________________________________________________
dense_3 (Dense)              (None, 512)               262656    
=================================================================
Total params: 14,977,344
Trainable params: 262,656
Non-trainable params: 14,714,688
_________________________________________________________________
threshold:  0.5
l1 weight:  2
training CF model for alter class:  109.American_Redstart
Training CF model for PNs
Model: "model_2"
__________________________________________________________________________________________________
Layer (type)                    Output Shape         Param #     Connected to                     
==================================================================================================
input_5 (InputLayer)            [(None, 224, 224, 3) 0                                            
__________________________________________________________________________________________________
counterfactual_model (Functiona (None, 512)          14977344    input_5[0][0]                    
__________________________________________________________________________________________________
base_model (Functional)         [(None, 200), (None, 14817288    input_5[0][0]                    
                                                                 counterfactual_model[0][0]       
==================================================================================================
…
