…
block3_conv3 		 (None, 60, 60, 256)
block4_conv1 		 (None, 30, 30, 512)
block4_conv2 		 (None, 30, 30, 512)
block4_conv3 		 (None, 30, 30, 512)
block5_conv1 		 (None, 15, 15, 512)
block5_conv2 		 (None, 15, 15, 512)
block5_conv3 		 (None, 15, 15, 512)
total neurons:  4224
Model: "base_model"
__________________________________________________________________________________________________
Layer (type)                    Output Shape         Param #     Connected to                     
==================================================================================================
input_1 (InputLayer)            [(None, 240, 240, 3) 0                                            
__________________________________________________________________________________________________
block1_conv1 (Conv2D)           (None, 240, 240, 64) 1792        input_1[0][0]                    
__________________________________________________________________________________________________
block1_conv2 (Conv2D)           (None, 240, 240, 64) 36928       block1_conv1[0][0]               
__________________________________________________________________________________________________
block1_pool (MaxPooling2D)      (None, 120, 120, 64) 0           block1_conv2[0][0]               
__________________________________________________________________________________________________
block2_conv1 (Conv2D)           (None, 120, 120, 128 73856       block1_pool[0][0]                
__________________________________________________________________________________________________
block2_conv2 (Conv2D)           (None, 120, 120, 128 147584      block2_conv1[0][0]               
__________________________________________________________________________________________________
block2_pool (MaxPooling2D)      (None, 60, 60, 128)  0           block2_conv2[0][0]               
__________________________________________________________________________________________________
block3_conv1 (Conv2D)           (None, 60, 60, 256)  295168      block2_pool[0][0]                
__________________________________________________________________________________________________
block3_conv2 (Conv2D)           (None, 60, 60, 256)  590080      block3_conv1[0][0]               
__________________________________________________________________________________________________
block3_conv3 (Conv2D)           (None, 60, 60, 256)  590080      block3_conv2[0][0]               
__________________________________________________________________________________________________
block3_pool (MaxPooling2D)      (None, 30, 30, 256)  0           block3_conv3[0][0]               
__________________________________________________________________________________________________
block4_conv1 (Conv2D)           (None, 30, 30, 512)  1180160     block3_pool[0][0]                
__________________________________________________________________________________________________
block4_conv2 (Conv2D)           (None, 30, 30, 512)  2359808     block4_conv1[0][0]               
__________________________________________________________________________________________________
block4_conv3 (Conv2D)           (None, 30, 30, 512)  2359808     block4_conv2[0][0]               
__________________________________________________________________________________________________
block4_pool (MaxPooling2D)      (None, 15, 15, 512)  0           block4_conv3[0][0]               
__________________________________________________________________________________________________
block5_conv1 (Conv2D)           (None, 15, 15, 512)  2359808     block4_pool[0][0]                
__________________________________________________________________________________________________
block5_conv2 (Conv2D)           (None, 15, 15, 512)  2359808     block5_conv1[0][0]               
__________________________________________________________________________________________________
block5_conv3 (Conv2D)           (None, 15, 15, 512)  2359808     block5_conv2[0][0]               
__________________________________________________________________________________________________
max_pooling2d (MaxPooling2D)    (None, 7, 7, 512)    0           block5_conv3[0][0]               
__________________________________________________________________________________________________
global_average_pooling2d (Globa (None, 512)          0           max_pooling2d[0][0]              
__________________________________________________________________________________________________
input_2 (InputLayer)            [(None, 512)]        0                                            
__________________________________________________________________________________________________
tf.__operators__.add (TFOpLambd (None, 512)          0           global_average_pooling2d[0][0]   
                                                                 input_2[0][0]                    
__________________________________________________________________________________________________
dense (Dense)                   (None, 2)            1026        tf.__operators__.add[0][0]       
__________________________________________________________________________________________________
activation (Activation)         (None, 2)            0           dense[0][0]                      
==================================================================================================
Total params: 14,715,714
Trainable params: 1,026
Non-trainable params: 14,714,688
__________________________________________________________________________________________________
weights loaded
Model: "counterfactual_model"
_________________________________________________________________
Layer (type)                 Output Shape              Param #   
=================================================================
input_1 (InputLayer)         [(None, 240, 240, 3)]     0         
_________________________________________________________________
block1_conv1 (Conv2D)        (None, 240, 240, 64)      1792      
_________________________________________________________________
block1_conv2 (Conv2D)        (None, 240, 240, 64)      36928     
_________________________________________________________________
block1_pool (MaxPooling2D)   (None, 120, 120, 64)      0         
_________________________________________________________________
block2_conv1 (Conv2D)        (None, 120, 120, 128)     73856     
_________________________________________________________________
block2_conv2 (Conv2D)        (None, 120, 120, 128)     147584    
_________________________________________________________________
block2_pool (MaxPooling2D)   (None, 60, 60, 128)       0         
_________________________________________________________________
block3_conv1 (Conv2D)        (None, 60, 60, 256)       295168    
_________________________________________________________________
block3_conv2 (Conv2D)        (None, 60, 60, 256)       590080    
_________________________________________________________________
block3_conv3 (Conv2D)        (None, 60, 60, 256)       590080    
_________________________________________________________________
block3_pool (MaxPooling2D)   (None, 30, 30, 256)       0         
_________________________________________________________________
block4_conv1 (Conv2D)        (None, 30, 30, 512)       1180160   
_________________________________________________________________
block4_conv2 (Conv2D)        (None, 30, 30, 512)       2359808   
_________________________________________________________________
block4_conv3 (Conv2D)        (None, 30, 30, 512)       2359808   
_________________________________________________________________
block4_pool (MaxPooling2D)   (None, 15, 15, 512)       0         
_________________________________________________________________
block5_conv1 (Conv2D)        (None, 15, 15, 512)       2359808   
_________________________________________________________________
block5_conv2 (Conv2D)        (None, 15, 15, 512)       2359808   
_________________________________________________________________
block5_conv3 (Conv2D)        (None, 15, 15, 512)       2359808   
_________________________________________________________________
max_pooling2d_1 (MaxPooling2 (None, 7, 7, 512)         0         
_________________________________________________________________
global_average_pooling2d_1 ( (None, 512)               0         
_________________________________________________________________
dense_1 (Dense)              (None, 512)               262656    
=================================================================
Total params: 14,977,344
Trainable params: 262,656
Non-trainable params: 14,714,688
_________________________________________________________________
threshold:  0.5
l1 weight:  2
training CF model for alter class:  non_tumor
Training CF model for PNs
Model: "model_1"
__________________________________________________________________________________________________
Layer (type)                    Output Shape         Param #     Connected to                     
==================================================================================================
input_3 (InputLayer)            [(None, 240, 240, 3) 0                                            
__________________________________________________________________________________________________
counterfactual_model (Functiona (None, 512)          14977344    input_3[0][0]                    
__________________________________________________________________________________________________
base_model (Functional)         [(None, 2), (None, 1 14715714    input_3[0][0]                    
                                                                 counterfactual_model[0][0]       
==================================================================================================
…
