…
odel='customCNN/', imagenet_weights=False) 

Model: "base_model"
__________________________________________________________________________________________________
Layer (type)                    Output Shape         Param #     Connected to                     
==================================================================================================
input_1 (InputLayer)            [(None, 28, 28, 1)]  0                                            
__________________________________________________________________________________________________
conv2d (Conv2D)                 (None, 28, 28, 64)   640         input_1[0][0]                    
__________________________________________________________________________________________________
max_pooling2d (MaxPooling2D)    (None, 14, 14, 64)   0           conv2d[0][0]                     
__________________________________________________________________________________________________
conv2d_1 (Conv2D)               (None, 14, 14, 64)   36928       max_pooling2d[0][0]              
__________________________________________________________________________________________________
max_pooling2d_1 (MaxPooling2D)  (None, 7, 7, 64)     0           conv2d_1[0][0]                   
__________________________________________________________________________________________________
conv2d_2 (Conv2D)               (None, 7, 7, 64)     36928       max_pooling2d_1[0][0]            
__________________________________________________________________________________________________
max_pooling2d_2 (MaxPooling2D)  (None, 3, 3, 64)     0           conv2d_2[0][0]                   
__________________________________________________________________________________________________
conv2d_3 (Conv2D)               (None, 3, 3, 128)    73856       max_pooling2d_2[0][0]            
__________________________________________________________________________________________________
maxpool2 (MaxPooling2D)         (None, 1, 1, 128)    0           conv2d_3[0][0]                   
__________________________________________________________________________________________________
global_average_pooling2d (Globa (None, 128)          0           maxpool2[0][0]                   
__________________________________________________________________________________________________
fmatrix (InputLayer)            [(None, 128)]        0                                            
__________________________________________________________________________________________________
tf.__operators__.add (TFOpLambd (None, 128)          0           global_average_pooling2d[0][0]   
                                                                 fmatrix[0][0]                    
__________________________________________________________________________________________________
dense (Dense)                   (None, 10)           1290        tf.__operators__.add[0][0]       
__________________________________________________________________________________________________
activation (Activation)         (None, 10)           0           dense[0][0]                      
==================================================================================================
Total params: 149,642
Trainable params: 149,642
Non-trainable params: 0
__________________________________________________________________________________________________
weights loaded
Model: "counterfactual_model"
_________________________________________________________________
Layer (type)                 Output Shape              Param #   
=================================================================
input_1 (InputLayer)         [(None, 28, 28, 1)]       0         
_________________________________________________________________
conv2d (Conv2D)              (None, 28, 28, 64)        640       
_________________________________________________________________
max_pooling2d (MaxPooling2D) (None, 14, 14, 64)        0         
_________________________________________________________________
conv2d_1 (Conv2D)            (None, 14, 14, 64)        36928     
_________________________________________________________________
max_pooling2d_1 (MaxPooling2 (None, 7, 7, 64)          0         
_________________________________________________________________
conv2d_2 (Conv2D)            (None, 7, 7, 64)          36928     
_________________________________________________________________
max_pooling2d_2 (MaxPooling2 (None, 3, 3, 64)          0         
_________________________________________________________________
conv2d_3 (Conv2D)            (None, 3, 3, 128)         73856     
_________________________________________________________________
maxpool2 (MaxPooling2D)      (None, 1, 1, 128)         0         
_________________________________________________________________
global_average_pooling2d_1 ( (None, 128)               0         
_________________________________________________________________
dense_1 (Dense)              (None, 128)               16512     
=================================================================
Total params: 164,864
Trainable params: 16,512
Non-trainable params: 148,352
_________________________________________________________________
threshold:  0.5
l1 weight:  0.1
training CF model for alter class:  0
Training CF model for PNs
training for fixed alter class:  0
Model: "model"
__________________________________________________________________________________________________
…
