…
odel='customCNN/', imagenet_weights=False) 

Model: "base_model"
__________________________________________________________________________________________________
Layer (type)                    Output Shape         Param #     Connected to                     
==================================================================================================
input_1 (InputLayer)            [(None, 28, 28, 1)]  0                                            
__________________________________________________________________________________________________
conv2d (Conv2D)                 (None, 28, 28, 64)   640         input_1[0][0]                    
__________________________________________________________________________________________________
conv2d_1 (Conv2D)               (None, 28, 28, 64)   36928       conv2d[0][0]                     
__________________________________________________________________________________________________
max_pooling2d (MaxPooling2D)    (None, 14, 14, 64)   0           conv2d_1[0][0]                   
__________________________________________________________________________________________________
conv2d_2 (Conv2D)               (None, 14, 14, 128)  73856       max_pooling2d[0][0]              
__________________________________________________________________________________________________
conv2d_3 (Conv2D)               (None, 14, 14, 128)  147584      conv2d_2[0][0]                   
__________________________________________________________________________________________________
max_pooling2d_1 (MaxPooling2D)  (None, 7, 7, 128)    0           conv2d_3[0][0]                   
__________________________________________________________________________________________________
conv2d_4 (Conv2D)               (None, 7, 7, 256)    295168      max_pooling2d_1[0][0]            
__________________________________________________________________________________________________
conv2d_5 (Conv2D)               (None, 7, 7, 256)    590080      conv2d_4[0][0]                   
__________________________________________________________________________________________________
conv2d_6 (Conv2D)               (None, 7, 7, 256)    590080      conv2d_5[0][0]                   
__________________________________________________________________________________________________
max_pooling2d_2 (MaxPooling2D)  (None, 3, 3, 256)    0           conv2d_6[0][0]                   
__________________________________________________________________________________________________
conv2d_7 (Conv2D)               (None, 3, 3, 512)    1180160     max_pooling2d_2[0][0]            
__________________________________________________________________________________________________
conv2d_8 (Conv2D)               (None, 3, 3, 512)    2359808     conv2d_7[0][0]                   
__________________________________________________________________________________________________
conv2d_9 (Conv2D)               (None, 3, 3, 512)    2359808     conv2d_8[0][0]                   
__________________________________________________________________________________________________
maxpool2 (MaxPooling2D)         (None, 1, 1, 512)    0           conv2d_9[0][0]                   
__________________________________________________________________________________________________
global_average_pooling2d (Globa (None, 512)          0           maxpool2[0][0]                   
__________________________________________________________________________________________________
fmatrix (InputLayer)            [(None, 512)]        0                                            
__________________________________________________________________________________________________
tf.__operators__.add (TFOpLambd (None, 512)          0           global_average_pooling2d[0][0]   
                                                                 fmatrix[0][0]                    
__________________________________________________________________________________________________
dense (Dense)                   (None, 10)           5130        tf.__operators__.add[0][0]       
__________________________________________________________________________________________________
activation (Activation)         (None, 10)           0           dense[0][0]                      
==================================================================================================
Total params: 7,639,242
Trainable params: 7,639,242
Non-trainable params: 0
__________________________________________________________________________________________________
weights loaded
Model: "counterfactual_model"
_________________________________________________________________
Layer (type)                 Output Shape              Param #   
=================================================================
input_1 (InputLayer)         [(None, 28, 28, 1)]       0         
_________________________________________________________________
conv2d (Conv2D)              (None, 28, 28, 64)        640       
_________________________________________________________________
conv2d_1 (Conv2D)            (None, 28, 28, 64)        36928     
_________________________________________________________________
max_pooling2d (MaxPooling2D) (None, 14, 14, 64)        0         
_________________________________________________________________
conv2d_2 (Conv2D)            (None, 14, 14, 128)       73856     
_________________________________________________________________
conv2d_3 (Conv2D)            (None, 14, 14, 128)       147584    
_________________________________________________________________
max_pooling2d_1 (MaxPooling2 (None, 7, 7, 128)         0         
_________________________________________________________________
conv2d_4 (Conv2D)            (None, 7, 7, 256)         295168    
_________________________________________________________________
conv2d_5 (Conv2D)            (None, 7, 7, 256)         590080    
_________________________________________________________________
conv2d_6 (Conv2D)            (None, 7, 7, 256)         590080    
_________________________________________________________________
max_pooling2d_2 (MaxPooling2 (None, 3, 3, 256)         0         
_________________________________________________________________
conv2d_7 (Conv2D)            (None, 3, 3, 512)         1180160   
_________________________________________________________________
conv2d_8 (Conv2D)            (None, 3, 3, 512)         2359808   
_________________________________________________________________
conv2d_9 (Conv2D)            (None, 3, 3, 512)         2359808   
_________________________________________________________________
maxpool2 (MaxPooling2D)      (None, 1, 1, 512)         0         
_________________________________________________________________
global_average_pooling2d_1 ( (None, 512)               0         
_________________________________________________________________
dense_1 (Dense)              (None, 512)               262656    
=================================================================
Total params: 7,896,768
Trainable params: 262,656
Non-trainable params: 7,634,112
_________________________________________________________________
threshold:  0.5
l1 weight:  2
training CF model for alter class:  3
Training CF model for PNs
training for fixed alter class:  3
Model: "model"
__________________________________________________________________________________________________
…
